Base model -> finished with 98.745% on AVG on k=10.

This one is with epoch = 10, batch_size = 32.

From here we will try do to some changes in order to improve our results.


Model Summary:

Model: "sequential"
_________________________________________________________________
 Layer (type)                Output Shape              Param #   
=================================================================
 conv2d (Conv2D)             (None, 32, 32, 32)        320       
                                                                 
 conv2d_1 (Conv2D)           (None, 30, 30, 32)        9248      
                                                                 
 max_pooling2d (MaxPooling2D  (None, 15, 15, 32)       0         
 )                                                               
                                                                 
 dropout (Dropout)           (None, 15, 15, 32)        0         
                                                                 
 conv2d_2 (Conv2D)           (None, 15, 15, 64)        18496     
                                                                 
 conv2d_3 (Conv2D)           (None, 13, 13, 64)        36928     
                                                                 
 max_pooling2d_1 (MaxPooling  (None, 6, 6, 64)         0         
 2D)                                                             
                                                                 
 dropout_1 (Dropout)         (None, 6, 6, 64)          0         
                                                                 
 flatten (Flatten)           (None, 2304)              0         
                                                                 
 dense (Dense)               (None, 512)               1180160   
                                                                 
 dropout_2 (Dropout)         (None, 512)               0         
                                                                 
 dense_1 (Dense)             (None, 25)                12825     
                                                                 
=================================================================
Total params: 1,257,977
Trainable params: 1,257,977
Non-trainable params: 0
_________________________________________________________________
