…
The best K (AVG - Train && Test runs) is: K = 8.
Total Success Rate for this K is (AVG - Train && Test): 98.630 %.

***	Results summary for this K (8)	***

- Success Rate:
	Train:	 98.676 %
	Test:	 98.310 %
- Distribution Ratio:
	Train:	 87.500 %
	Test:	 12.500 %
- Number Of Images (+/- 1):
	Total:	  9764
	Train:	 ~8544
	Test:	 ~1220

Model Summary:

Model: "sequential_6"
_________________________________________________________________
 Layer (type)                Output Shape              Param #   
=================================================================
 conv2d_36 (Conv2D)          (None, 32, 32, 32)        320       
                                                                 
 conv2d_37 (Conv2D)          (None, 30, 30, 32)        9248      
                                                                 
 max_pooling2d_18 (MaxPoolin  (None, 15, 15, 32)       0         
 g2D)                                                            
                                                                 
 dropout_24 (Dropout)        (None, 15, 15, 32)        0         
                                                                 
 conv2d_38 (Conv2D)          (None, 15, 15, 64)        18496     
                                                                 
 conv2d_39 (Conv2D)          (None, 13, 13, 64)        36928     
                                                                 
 max_pooling2d_19 (MaxPoolin  (None, 6, 6, 64)         0         
 g2D)                                                            
                                                                 
 dropout_25 (Dropout)        (None, 6, 6, 64)          0         
                                                                 
 conv2d_40 (Conv2D)          (None, 6, 6, 128)         73856     
                                                                 
 conv2d_41 (Conv2D)          (None, 4, 4, 128)         147584    
                                                                 
 max_pooling2d_20 (MaxPoolin  (None, 2, 2, 128)        0         
 g2D)                                                            
                                                                 
 dropout_26 (Dropout)        (None, 2, 2, 128)         0         
                                                                 
 flatten_6 (Flatten)         (None, 512)               0         
                                                                 
 dense_12 (Dense)            (None, 512)               262656    
                                                                 
 dropout_27 (Dropout)        (None, 512)               0         
                                                                 
 dense_13 (Dense)            (None, 25)                12825     
                                                                 
=================================================================
Total params: 561,913
Trainable params: 561,913
Non-trainable params: 0
_________________________________________________________________
